robust_model_gpu.pth (torch, 105089 bytes, 6 tensors)

fc1.weight f4 [128, 42]
0.06847562 -0.13325009 -0.04093087 -0.1456834 -0.0026812875 0.19709161 0.24561822 0.11485161
0.5675964 0.10389531 -0.08265784 -0.040332325 0.06231583 -0.10939814 0.32475442 -0.22403751
0.34666258 -0.31647974 -0.07835843 0.05329482 0.06971514 -0.2168189 -0.06898569 -0.1420284
-0.21860775 -0.20998254 -0.008020805 0.11821421 0.30935287 -0.17866391 0.1203052 -0.08879242
-0.36820805 -0.082974724 0.105768986 0.016256845 -0.058137633 0.009766118 0.043763336 0.14551868
-0.232827 0.13251558 -0.102609485 -0.042756684 -0.025754407 -0.44712225 0.03502277 -0.06978491
0.46778098 -0.403797 0.84789693 -0.45393467 0.22971064 -0.013700549 0.15507862 0.031729188
0.18027174 0.14393735 -0.0017157305 -0.13838722 0.09556153 -0.11999197 -0.35361424 -0.15414919
-0.31707442 -0.096877344 -0.21129003 0.12036183 -0.1589495 -0.12549089 -0.00033722143 0.15217532
0.054072 0.3151306 0.14340737 0.22266315 -0.30920678 0.0956561 -0.15146226 0.039495893
-0.13641202 0.24182372 -0.48631936 0.28804195 -0.1056319 0.06268504 -0.046339028 0.39671913
-0.098990805 0.17233795 -0.098592564 0.09620222 0.6802662 0.21921414 0.121860325 -0.22217485
-0.1964842 0.012866631 -0.6626513 -0.35952666 -0.82251376 -0.24047506 0.4364053 -0.24015269
0.3743387 -0.20352675 0.38563624 -0.052361757 0.58305854 0.33986723 0.20740023 0.03479152
-0.08805192 -0.29123905 -0.27380106 -0.19238229 -0.20288251 0.5440764 0.16765812 0.10508692
0.014746165 -0.38382152 -0.14299476 -0.024993027 -0.007007408 0.50201774 -0.14083749 -0.012015358
-0.13888098 0.11127126 -0.1304199 -0.1485586 -0.026286494 -0.13203527 0.12089146 -0.09141159
0.0139900865 -0.24799511 0.02386073 -0.13037573 -0.1859793 -0.014585556 -0.39921504 0.26106757
0.1136775 -0.17110439 0.13682598 0.30258685 0.03217176 0.464249 0.31141338 0.16669144
0.39688545 -0.25994956 0.02854647 0.36838794 -0.04079185 0.22525065 0.17346041 -0.24930967
0.19319709 -0.22562113 -0.09312539 0.3201538 -0.21800432 -0.25262722 -0.7724925 -0.73950046
0.07325874 0.03389147 -0.04618042 -0.12813127 -0.22905959 0.093431965 0.18938826 -0.30439857
0.4648995 -0.77550435 0.2896105 0.17330065 0.263507 0.14704882 0.15159428 0.24921924
0.58733517 0.2602215 0.12784743 -0.06479204 -0.34118217 -0.0021453383 -0.39185888 -0.22546259
-0.5488843 -0.17824067 0.1314979 -0.061515655 -0.102813534 -0.033774182 -0.3156804 0.22950564
-0.23459074 0.28324246 0.059904795 -0.048192896 -0.15487497 0.06142866 -0.3325078 0.08694095
-0.5227734 0.22869304 0.0024332851 -0.1297405 -0.028583061 -0.3617019 0.124602854 -0.18148391
0.31853104 -0.11319139 0.79955107 -0.36890697 0.024087813 0.21043882 -0.045041513 0.24138993
-0.14455391 -0.34557474 0.0930036 -0.4734559 -0.24447095 0.40972364 -0.06637143 -0.04915054
-0.03560417 0.058382697 0.14602587 -0.10547311 -0.13107403 0.14961812 0.12941776 0.1160943
0.32250398 0.14034727 0.38119256 0.5499122 -0.5074348 0.29684922 -0.13430496 -0.020331666
-0.16191413 -0.056561276 0.091267854 -0.06821042 0.04890141 0.11731796 0.017943488 0.40770397
00000000: f23c 8c3d b672 08be 21a7 27bd 072e 15be
00000010: 8ab8 2fbb 62d2 493e 5883 7b3e 5237 eb3d
00000020: ff4d 113f 10c7 d43d 8348 a9bd 8233 25bd
00000030: e23e 7f3d 220c e0bd 3646 a63e 176a 65be
00000040: c27d b13e a209 a2be 627a a0bd ab4b 5a3d
00000050: d0c6 8e3d c605 5ebe 5f48 8dbd e56f 11be
00000060: b6da 5fbe aa05 57be b269 03bc 4b1a f23d
00000070: 8063 9e3e acf3 36be 9362 f63d cdd8 b5bd
00000080: c485 bcbe a7ee a9bd 699d d83d 132d 853c
00000090: ba21 6ebd 1102 203c 2f41 333d d902 153e
000000a0: 336a 6ebe 2ab2 073e ec24 d2bd a221 2fbd
000000b0: e8fa d2bc 35ed e4be 0974 0f3d 64eb 8ebd
000000c0: fd80 ef3e 7bbe cebe c60f 593f 206a e8be
000000d0: 4439 6b3e 4478 60bc eecc 1e3e 77f6 013d
000000e0: 2899 383e 5064 133e 5de2 e0ba 61b5 0dbe
000000f0: c3b5 c33d 5abe f5bd ed0c b5be 49d9 1dbe
00000100: 9457 a2be a167 c6bd 6a5c 58be 4380 f63d
00000110: a8c3 22be af80 00be 18cd b0b9 d9d3 1b3e
00000120: 9a7a 5d3d cc58 a13e 62d9 123e cf01 643e
00000130: 5a50 9ebe 58e7 c33d ec18 1bbe 72c6 213d
00000140: 98af 0bbe a3a0 773e dafe f8be 3c7a 933e
00000150: 8a55 d8bd 0461 803d fecd 3dbd c51e cb3e
00000160: b1bb cabd 5c79 303e e6ea c9bd ab05 c53d
00000170: ed25 2e3f ac79 603e e891 f93d ce81 63be
00000180: 2733 49be 90ce 523c 84a3 29bf e113 b8be
00000190: 4390 52bf 183f 76be 8470 df3e 96ea 75be
000001a0: 52a9 bf3e 5169 50be 1d72 c53e 4879 56bd
000001b0: 5343 153f 1403 ae3e ba60 543e 8e81 0e3d
000001c0: 9154 b4bd 491d 95be a72f 8cbe ddff 44be
000001d0: 6fc0 4fbe 9748 0b3f 92ae 2b3e d037 d73d
000001e0: e699 713c 4184 c4be 386d 12be 2dbe ccbc
000001f0: 669e e5bb 3c84 003f b437 10be 10dc 44bc
00000200: d136 0ebe 30e2 e33d cb8c 05be bf1f 18be
00000210: c656 d7bc 4134 07be f195 f73d 0036 bbbd
00000220: ad36 653c 6ef2 7dbe 9477 c33c 3781 05be
00000230: 5c71 3ebe 42f8 6ebc ea65 ccbe a6aa 853e
00000240: c0cf e83d fd35 2fbe 1c1c 0c3e aaec 9a3e
00000250: 89c6 033d 0cb2 ed3e 9371 9f3e 29b1 2a3e
00000260: 9234 cb3e 1c18 85be 49da e93c 589d bc3e
00000270: 5b15 27bd 1ba8 663e 9b9f 313e 094b 7fbe
00000280: 75d5 453e 3a09 67be 86b8 bebd 33eb a33e
00000290: 863c 5fbe 5b58 81be 12c2 45bf e74f 3dbf
000002a0: ae08 963d c8d1 0a3d ae27 3dbd d834 03be
000002b0: 998e 6abe 4259 bf3d ffee 413e 21da 9bbe
000002c0: 4f07 ee3e 7487 46bf d447 943e ba75 313e
000002d0: 64ea 863e f793 163e 883b 1b3e 5433 7f3e
000002e0: 995b 163f c13b 853e 70ea 023e b0b1 84bd
000002f0: 6eaf aebe ce98 0cbb baa1 c8be aadf 66be
00000300: ae83 0cbf b984 36be 63a7 063e d7f7 7bbd
00000310: e78f d2bd cc56 0abd dda0 a1be 8703 6b3e
00000320: 8e38 70be 2805 913e bb5e 753d ea65 45bd
00000330: 8b97 1ebe 9e9c 7b3d 763e aabe 190e b23d
00000340: 7ad4 05bf 822e 6a3e c077 1f3b b2da 04be
00000350: 0627 eabc fe30 b9be c82f ff3d ebd6 39be
00000360: 8016 a33e e3d0 e7bd 61af 4c3f 60e1 bcbe
00000370: ce53 c53c 467d 573e 737d 38bd ec2e 773e
00000380: f105 14be 2cef b0be ac78 be3d d068 f2be
00000390: 9856 7abe 4cc7 d13e bfed 87bd 1452 49bd
000003a0: aed5 11bd b222 6f3d ce87 153e 4902 d8bd
000003b0: 4538 06be 7e35 193e 1786 043e d9c2 ed3d
000003c0: 3e1f a53e 32b7 0f3e ac2b c33e 0cc7 0c3f
000003d0: 3fe7 01bf 9ffc 973e 3d87 09be 988e a6bc
000003e0: d1cc 25be ccac 67bd a4ea ba3d e8b1 8bbd
000003f0: d84c 483d 6644 f03d 39fe 923c 93be d03e

fc1.bias f4 [128]
-0.50970656 -0.36426413 -0.20149787 -0.01256369 -0.27286693 -0.20540315 -0.052787215 -0.16214599
-0.25680134 0.0950925 -0.1924 0.2907151 -0.40043265 -0.042066503 -0.08094061 -0.27775797
-0.24611248 -0.08995875 0.008485288 -0.46436122 -0.033133686 0.16732208 -0.26687852 0.05223677
0.13641758 -0.29378974 -0.15140803 -0.22142732 -0.33236057 -0.23874263 -0.12113891 -0.040697698
-0.09115191 -0.16188915 -0.24213377 -0.26629984 -0.22303067 0.05615193 0.07661126 -0.1850204
-0.07978591 -0.12536539 -0.08340959 0.019225871 -0.094472915 0.10734231 -0.067470916 0.13825193
-0.39330342 -0.34803894 -0.2910776 0.102501266 -0.34299818 -0.51790506 0.019747244 -0.15989459
-0.11772991 0.045324426 -0.2933426 -0.38095474 0.09420227 -0.12669681 -0.11360807 0.14541566
-0.075360686 -0.1973067 -0.047453772 -0.072813086 0.030279506 -0.40565363 -0.4439287 -0.051917017
-0.2604817 -0.16890286 -0.11753387 -0.22989912 -0.16437192 0.16803665 -0.2258513 -0.19465737
-0.2492106 -0.23035406 -0.01618414 -0.012537923 -0.031566616 -0.17305413 -0.13508475 -0.31987587
-0.23250672 -0.1574583 -0.029624408 -0.054105293 -0.052655865 -0.49392408 0.111780256 -0.0058788825
-0.5538937 -0.20912573 0.50882286 -0.24611896 -0.016592767 -0.1941681 0.04531506 -0.12125451
-0.36930388 -0.30412048 -0.35709307 -0.16666098 -0.020010013 -0.15780386 -0.46242127 -0.1930526
-0.04355255 -0.12690353 -0.25862917 0.08225532 -0.29889598 -0.30100843 -0.08555264 0.12650815
-0.15482472 0.007618546 -0.21509856 -0.303765 -0.06012644 -0.18980454 -0.05730786 -0.1610098
00000000: 217c 02bf d480 babe 7555 4ebe efd7 4dbc
00000010: 37b5 8bbe 3455 52be 6837 58bd 9909 26be
00000020: 777b 83be dbbf c23d 8104 45be 9cd8 943e
00000030: 8205 cdbe ed4d 2cbd 31c4 a5bd 4b36 8ebe
00000040: e904 7cbe 4b3c b8bd e105 0b3c c1c0 edbe
00000050: 30b7 07bd 7b56 2b3e 4da4 88be 39f6 553d
00000060: 0db1 0b3e 9c6b 96be b50a 1bbe d8bd 62be
00000070: 2a2b aabe f378 74be ad17 f8bd a1b2 26bd
00000080: daad babd 45c6 25be eaf1 77be 7458 88be
00000090: 2762 64be 91ff 653d 5de6 9c3d fd75 3dbe
000000a0: cc66 a3bd c95f 00be a6d2 aabd 937f 9d3c
000000b0: 047b c1bd 49d6 db3d 312e 8abd ea91 0d3e
000000c0: 115f c9be 2932 b2be 2008 95be 2fec d13d
000000d0: 759d afbe 6d95 04bf f9c4 a13c 68bb 23be
000000e0: 611c f1bd 1ba6 393d 0031 96be 800c c3be
000000f0: 1fed c03d cfbc 01be 59ab e8bd d8e7 143e
00000100: b456 9abd c40a 4abe e35e 42bd 071f 95bd
00000110: ba0c f83c d5b1 cfbe 9f4a e3be f0a6 54bd
00000120: db5d 85be dff4 2cbe 99b5 f0bd ad6a 6bbe
00000130: 1d51 28be cd11 2c3e 9045 67be 4354 47be
00000140: 1031 7fbe efe1 6bbe 9a94 84bc dc6b 4dbc
00000150: ff4b 01bd 1a35 31be a853 0abe c5c6 a3be
00000160: 3e16 6ebe c03c 21be e3ae f2bc 839d 5dbd
00000170: adad 57bd 9ee3 fcbe 0ced e43d a4a3 c0bb
00000180: facb 0dbf 0e25 56be 3742 023f 9c06 7cbe
00000190: 8eed 87bc 01d4 46be 499c 393d 4954 f8bd
000001a0: 6615 bdbe aeb5 9bbe e7d4 b6be 2da9 2abe
000001b0: 0aec a3bc 5697 21be 7bc2 ecbe 95af 45be
000001c0: 2964 32bd 00f3 01be 0b6b 84be 7a75 a83d
000001d0: e508 99be c71d 9abe 3936 afbd 5a8b 013e
000001e0: 5f8a 1ebe ffa4 f93b cc42 5cbe 1687 9bbe
000001f0: 2447 76bd 1f5c 42be a6bb 6abd c1df 24be

fc2.weight f4 [128, 128]
0.031534374 0.14951828 0.07671084 -0.059677627 0.07685998 0.18529606 0.5118636 -0.24408601
0.07444175 -0.38159987 -0.020855257 0.23280177 0.02008776 -0.13415189 -0.024296138 -0.3906036
-0.10950194 -0.22740504 -0.06798694 0.24162042 -0.029723555 -0.21540064 0.13983376 0.332722
0.09661368 0.050456565 -0.3933259 -0.043475375 -0.10118784 0.38674423 -0.02064385 0.1508355
-0.012560815 -0.44110924 -0.053321492 -0.2811422 0.3760383 -0.061571624 -0.18737149 0.16037905
0.21344104 -0.23248206 0.0841452 -0.16037028 -0.212978 0.10756379 -0.08626776 -0.10719619
-0.47965568 0.06750042 0.03576651 0.37101668 -0.2420374 -0.3502342 -0.033368737 0.39337137
-0.047349323 0.062885195 -0.30427736 -0.2741295 0.5438188 -0.10946388 -0.16393211 0.13595273
-0.039316125 0.016645093 0.38855538 0.086438894 0.042547256 -0.025580434 0.089793935 0.13358283
0.17060122 -0.018226838 0.038410503 -0.13764177 -0.38142094 -0.04616605 -0.03879479 0.084065884
-0.12582718 0.15882793 -0.037100606 0.20487025 0.15976617 0.22816397 -0.15666746 -0.13915554
0.17128672 0.13307261 -0.0018782816 -0.10041156 0.03561414 0.17721015 0.25876907 0.36300024
0.22078486 0.036842678 -0.32248047 -0.014660543 0.08059772 0.048009496 -0.09018792 0.06747442
-0.067273244 0.0015862818 -0.08216311 -0.66244626 -0.014023431 -0.03482812 -0.050250325 0.3485543
0.03529896 0.29327783 -0.471315 -0.022549303 0.013410474 -0.06611874 0.12577732 0.01828855
-0.20447525 -0.04924608 0.14047053 -0.0972092 -0.044626724 -0.11580555 -0.6117471 0.11801345
-0.0046332795 -0.018151255 0.443381 0.040616836 -0.20521273 0.21443571 0.15782978 0.007562978
0.2646489 0.29985633 0.19091654 -0.18532637 -0.2578813 -0.04611438 -0.15462764 0.07473248
0.14434747 -0.118556485 -0.045899805 0.02789256 0.6137998 0.044220902 -1.143384 0.43562716
0.3674198 -0.067339964 -0.29388237 -0.22517923 -0.2703071 0.4986666 0.20917034 0.038559742
0.4889549 -0.13245063 0.11780528 -0.60193014 0.43421516 -0.25530472 -0.15863208 0.7392361
0.5356528 -0.13391906 0.76148486 0.2691811 0.47159734 0.07209305 -0.21084665 -0.07251957
0.004588687 0.17279828 -0.33380195 -0.4217559 -0.30436715 -0.4184815 -0.20906858 0.454919
0.23054478 0.016896559 -0.17201209 -0.6331247 0.101360776 -0.526313 -0.04379884 -0.22257344
-0.0166785 -0.44083625 0.10123757 -0.15510164 -0.08823626 0.0027436865 -0.7566096 0.4191665
0.1615355 0.602348 -0.010398555 0.13230349 -0.22606054 -0.03676468 0.22258922 -0.2117732
0.02242628 0.12639937 0.35973093 0.04226685 0.6662412 0.47433847 0.18966872 -0.22416647
0.17602846 -0.12044673 -0.10276381 0.1237837 -0.09037384 0.26018044 0.18281886 0.47512943
-0.04481685 0.022070324 -0.17713225 -0.332394 -0.028411288 -0.07789772 0.047357466 0.18264814
0.7195622 -0.33881414 -0.27132142 -0.3592586 0.32154533 0.25441676 -0.25388896 -0.7460191
-0.13194162 0.38645807 -0.33728752 0.24481079 0.29743436 0.03840376 0.1377532 0.044927154
-0.20002705 -0.09776129 -0.76377904 0.18409252 -0.13044375 -0.6568259 -0.3845187 0.2904692
00000000: 302a 013d 521b 193e 931a 9d3d 8770 74bd
00000010: c468 9d3d 40be 3d3e 7e09 033f aff1 79be
00000020: eb74 983d 0f61 c3be a5d8 aabc 9663 6e3e
00000030: 168f a43c 1d5f 09be b208 c7bc 32fd c7be
00000040: 8e42 e0bd dedc 68be bd3c 8bbd 586b 773e
00000050: d07e f3bc fc91 5cbe 9530 0f3e 8a5a aa3e
00000060: 65dd c53d 8bab 4e3d 0362 c9be 3c13 32bd
00000070: 923b cfbd 5703 c63e 4b1d a9bc 9f74 1a3e
00000080: e0cb 4dbc 12d9 e1be a367 5abd dff1 8fbe
00000090: 1888 c03e 8732 7cbd 50de 3fbe 683a 243e
000000a0: 4a90 5a3e c70f 6ebe 5254 ac3d 1b38 24be
000000b0: e816 5abe 684a dc3d 27ad b0bd ad89 dbbd
000000c0: 6e95 f5be a93d 8a3d e77f 123d e6f5 bd3e
000000d0: a7d8 77be e651 b3be a8ad 08bd f967 c93e
000000e0: 5df1 41bd f4c9 803d 3eca 9bbe b45a 8cbe
000000f0: b537 0b3f 992e e0bd d2dd 27be 3137 0b3e
00000100: f209 21bd 4a5b 883c bbf0 c63e e006 b13d
00000110: 0846 2e3d 0f8e d1bc e2e5 b73d f0c9 083e
00000120: 16b2 2e3e 7350 95bc 5554 1d3d f7f1 0cbe
00000130: 9b49 c3be 9d18 3dbd 49e7 1ebd bc2a ac3d
00000140: d7d8 00be caa3 223e cef6 17bd 82c9 513e
00000150: be99 233e d1a3 693e 6f6d 20be ca7e 0ebe
00000160: c965 2f3e 3044 083e ac30 f6ba 93a4 cdbd
00000170: 22e0 113d 9476 353e 617d 843e 2bdb b93e
00000180: 6d15 623e 59e8 163d 291c a5be c632 70bc
00000190: 6b10 a53d 9ba5 443d 72b4 b8bd 0730 8a3d
000001a0: 8ec6 89bd c9ea cf3a 2245 a8bd 1496 29bf
000001b0: 88c2 65bc eea7 0ebd 49d3 4dbd b675 b23e
000001c0: a495 103d 8328 963e 3350 f1be 51b9 b8bc
000001d0: 9bb7 5b3c 4369 87bd c5cb 003e dfd1 953c
000001e0: f661 51be 42b6 49bd 82d7 0f3e 9e15 c7bd
000001f0: 83ca 36bd 762b edbd 759b 1cbf 09b1 f13d
00000200: c4d2 97bb f1b1 94bc d602 e33e d75d 263d
00000210: 4923 52be 0995 5b3e 219e 213e dcd2 f73b
00000220: 1080 873e c586 993e a07f 433e 32c6 3dbe
00000230: 0509 84be 6fe2 3cbd b556 1ebe 580d 993d
00000240: d3cf 133e becd f2bd 6f01 3cbd f07e e43c
00000250: fc21 1d3f fa20 353d 685a 92bf 860a df3e
00000260: 731e bc3e 89e9 89bd c077 96be 6295 66be
00000270: b165 8abe 3b51 ff3e c030 563e d2f0 1d3d
00000280: 4c58 fa3e 23a1 07be e543 f13d 1818 1abf
00000290: 7351 de3e 4db7 82be 7370 22be 943e 3d3f
000002a0: 8b20 093f 1422 09be acf0 423f 1bd2 893e
000002b0: 3575 f13e 85a5 933d 2fe8 57be 2485 94bd
000002c0: b25c 963b 08f2 303e 17e8 aabe 64f0 d7be
000002d0: 03d6 9bbe 3543 d6be 1316 56be 25eb e83e
000002e0: ee13 6c3e a76a 8a3c f023 30be 7614 22bf
000002f0: 3d96 cf3d 73bc 06bf 6a66 33bd 4bea 63be
00000300: 5aa1 88bc 4ab5 e1be a555 cf3d f7d2 1ebe
00000310: 36b5 b4bd 6ccf 333b 2bb1 41bf fe9c d63e
00000320: 9069 253e 7b33 1a3f b35e 2abc 917a 073e
00000330: 6a7c 67be 9096 16bd 6eee 633e 13db 58be
00000340: 51b7 b73c d66e 013e a72e b83e 0120 2d3d
00000350: c98e 2a3f 7edc f23e 8438 423e e58b 65be
00000360: ce40 343e c6ac f6bd d575 d2bd 4f82 fd3d
00000370: eb15 b9bd 5f36 853e de34 3b3e 2a44 f33e
00000380: e091 37bd d3cc b43c 2862 35be 8c2f aabe
00000390: cabe e8bc d788 9fbd e7f9 413d 1d08 3b3e
000003a0: 3a35 383f 0c79 adbe a4ea 8abe bef0 b7be
000003b0: 97a1 a43e ea42 823e bcfd 81be 1cfb 3ebf
000003c0: b41b 07be d5dd c53e f3b0 acbe aeaf 7a3e
000003d0: 5149 983e 434d 1d3d 2d0f 0d3e 8905 383d
000003e0: e4d3 4cbe 1237 c8bd 0687 43bf c082 3c3e
000003f0: 0c93 05be be25 28bf a3df c4be 61b8 943e

fc2.bias f4 [128]
0.012584932 -0.17825867 0.0019833925 0.23620063 0.0003018328 0.24018982 -0.11398559 -0.16586149
-0.31614602 0.14890902 0.09521716 0.15755586 0.129867 0.258799 0.08666948 -0.028038274
-0.04410964 0.15310277 0.10014138 -0.18840289 -0.051650397 -0.0059534614 0.11655888 0.1404119
-0.049326126 0.19367056 -0.17882675 -0.1655957 -0.09710883 -0.21689066 0.17256841 0.033286516
0.119868085 -0.13738398 -0.0587146 0.07735409 -0.118168145 -0.06736391 0.26836565 -0.035273112
-0.19586639 0.001324266 -0.074480265 0.45482028 -0.16133742 0.38921738 -0.28164428 0.041641627
0.14221817 -0.1572384 0.105075225 0.39859787 -0.026481792 0.1414987 -0.19978672 -0.10562419
0.0098286765 0.07337118 -0.0086134765 0.1839103 0.22194265 0.3800333 0.45641333 0.026965654
-0.23629557 0.050945163 0.1370642 -0.29758522 -0.13956313 0.18442786 -0.08542105 -0.163205
-0.08970667 0.27058363 0.013039929 0.3356991 0.38478157 -0.20841122 -0.30780673 -0.38285094
0.024998438 0.083830304 0.15911779 0.16600858 -0.071332105 0.052295145 -0.26861534 0.08395727
-0.16055305 0.6644381 -0.10642362 -0.21383734 -0.12129187 0.06574784 0.50547624 -0.14620547
0.46895307 -0.20044805 -0.031788565 0.06762927 0.1376919 -0.21536301 0.060460825 0.017563483
-0.0184558 -0.07974432 -0.19118537 -0.15388517 0.04738367 0.062709786 0.13066812 -0.22066635
-0.47461367 0.09521343 0.1632843 0.33325452 0.11130872 0.046601564 0.004930139 0.26251465
-0.18014133 0.029510045 -0.15327427 -0.11247657 -0.075736664 -0.16408062 0.024866847 -0.22060865
00000000: 0831 4e3c 7189 36be cefb 013b 94de 713e
00000010: 503f 9e39 52f4 753e 4771 e9bd 98d7 29be
00000020: e4dd a1be 9b7b 183e 3701 c33d 5356 213e
00000030: dbfb 043e 4d81 843e c57f b13d 86b0 e5bc
00000040: 4fac 34bd f9c6 1c3e ed16 cd3d b0ec 40be
00000050: 5e8f 53bd 4115 c3bb 6cb6 ee3d 23c8 0f3e
00000060: 310a 4abd 9351 463e 5c1e 37be eb91 29be
00000070: ffe0 c6bd 9618 5ebe c6b5 303e 7157 083d
00000080: 667d f53d 63ae 0cbe b87e 70bd d26b 9e3d
00000090: 2402 f2bd 17f6 89bd 3967 893e 8a7a 10bd
000000a0: 3391 48be fe92 ad3a 1c89 98bd 34de e83e
000000b0: a335 25be 8047 c73e ae33 90be 6990 2a3d
000000c0: a4a1 113e 1a03 21be ae31 d73d 0515 cc3e
000000d0: 58f0 d8bc 09e5 103e e494 4cbe 7f51 d8bd
000000e0: 7508 213c a143 963d 8a1f 0dbc fb52 3c3e
000000f0: ef44 633e ba93 c23e 02af e93e 13e7 dc3c
00000100: 77f7 71be e0ab 503d 8f5a 0c3e 175d 98be
00000110: a3e9 0ebe a8da 3c3e 3bf1 aebd 361f 27be
00000120: 21b8 b7bd f089 8a3e 6da5 553c c1e0 ab3e
00000130: 1702 c53e c069 55be d898 9dbe 0a05 c4be
00000140: 86c9 cc3c 39af ab3d c6ef 223e 27fe 293e
00000150: 9116 92bd 6f33 563d f387 89be caf1 ab3d
00000160: 0568 24be 9e18 2a3f a0f4 d9bd 2df8 5abe
00000170: df67 f8bd cea6 863d e466 013f e3b6 15be
00000180: 9e1a f03e 4142 4dbe ba34 02bd 3781 8a3d
00000190: 1bff 0c3e 1f88 5cbe c5a5 773d 4be1 8f3c
000001a0: 9e30 97bc fd50 a3bd 19c6 43be 1394 1dbe
000001b0: 6115 423d fd6d 803d ddcd 053e 5cf6 61be
000001c0: 9000 f3be 42ff c23d 0034 273e 56a0 aa3e
000001d0: d4f5 e33d 48e1 3e3d 018d a13b 5268 863e
000001e0: f876 38be 0dbf f13c eef3 1cbe 1e5a e6bd
000001f0: d31b 9bbd c004 28be 8fb5 cb3c 3ce7 61be

fc3.weight f4 [27, 128]
0.034147315 -1.3987255 0.036338236 0.058191534 0.28324792 -0.95093495 0.085213825 0.44971022
0.03067564 0.15958898 -0.12596515 -0.28821668 0.011011332 -0.9316807 -0.32148358 0.10447324
0.035379853 -0.32003555 -0.6806326 -0.04123095 -0.010702266 -0.24753132 -0.07158388 0.22656107
-0.31774792 -0.4378744 0.07398493 -0.7133057 -0.07676463 0.04357583 -0.4166936 -0.07144048
0.12729473 0.20836155 -0.88942194 -0.42599568 0.16822867 0.12874061 -0.11363708 0.05395091
0.19320981 0.42507264 0.11845251 -0.034337655 -0.1744776 -0.03727393 0.05903745 0.11648691
-0.015411554 -0.10816627 -0.24252298 -0.2968489 0.110558175 -0.20015793 0.12010788 0.08698114
0.050226457 -0.1540054 -0.6643682 -0.17064878 -0.3062732 -0.8798224 0.14850694 -0.31545025
-1.2310815 0.087960124 -0.70230985 -0.646994 0.043547552 0.20577095 0.02102949 -0.13322242
0.15572079 -0.12839207 -0.028977027 0.6202411 0.50678134 -0.035198364 0.07136083 -0.11227175
-0.22670916 0.048346367 0.080888934 0.28691933 -0.20670423 0.10044142 -0.4657094 0.23809725
0.095277146 0.14176215 0.4452061 -0.21136622 0.14755742 -0.02682646 0.37742534 0.0947132
0.44588965 -0.58984786 -0.3981734 0.01908955 0.1862059 -0.054061588 -0.7354941 0.086276576
-0.036420215 0.022855941 -1.172075 -0.035955604 0.1404821 0.045892835 -0.4482428 -0.7098302
-0.0034256193 -0.2659668 -0.037370723 0.18005888 -0.33983707 0.070089355 -0.114334844 0.12906708
0.074672416 -0.9824497 -0.41800365 0.017579867 -1.4698136 0.30584395 -0.8187509 -0.22592045
-0.6072246 -0.3887179 -0.058824047 0.1673274 -1.1632439 0.09960535 0.063085966 -0.41225794
0.01746103 -0.6441912 0.10187698 -0.008031969 -0.23889253 -0.095660366 -0.25223008 -1.2591588
-0.5017924 -1.1331128 0.07596059 -0.7855641 -0.76852465 -0.36655307 -0.4284674 -1.0586134
-0.06849589 -0.37290218 0.20597732 -0.47961998 -0.6679842 -0.77627003 -0.47093928 -0.43995938
-0.0039174343 -0.31057295 -1.32784 -0.73042476 -0.07661579 -0.7298222 -0.17057365 -0.54624844
0.109245524 -0.85618377 0.21711627 0.24643244 -0.99997145 0.39796424 0.20392449 0.03175128
-0.030293856 0.11868175 -0.14853609 -0.14971402 -0.24603717 -0.2993696 -0.89312476 -0.9239746
0.13756904 -0.58557117 -0.32938254 0.2436528 0.21841303 -0.47982058 0.11611571 0.26952004
-0.11593514 0.2833472 -0.20325302 0.16132194 -0.39172152 0.1955345 -0.004699313 0.18055956
-0.40066683 -0.26092896 -0.98306483 -0.67826897 0.30313605 0.4537332 -0.28455582 -0.09061252
-0.102362454 -0.040172707 -0.05568244 -0.8633186 0.20996027 0.088163614 0.5312603 -0.9233899
-0.8274584 -0.006084905 -0.312868 -0.4061321 -0.3315834 -0.06433203 0.20866193 0.20631874
0.10158942 0.045988034 0.23089598 0.11159182 -1.1248944 -0.5017483 0.07596674 -0.027749538
0.10499037 -0.714139 0.28543022 -0.5528051 -0.5467644 0.28679582 -0.6050039 -0.21556522
-0.28944016 0.0905968 0.20997304 -0.010893536 -0.31871626 0.08960426 -0.98247534 -0.040840987
-1.0199219 0.16158466 -0.79443693 -0.6588318 -0.53436625 -1.0348828 0.6568243 -0.6672993
00000000: 0ede 0b3d 7009 b3bf 67d7 143d 3f5a 6e3d
00000010: df05 913e 7970 73bf 9684 ae3d 6b40 e63e
00000020: 7b4b fb3c 4b6b 233e 02fd 00be 2391 93be
00000030: e068 343c a082 6ebf 7f99 a4be 11f6 d53d
00000040: 77ea 103d b3db a3be f03d 2ebf c9e1 28bd
00000050: 8f58 2fbc da78 7dbe 929a 92bd a0ff 673e
00000060: dbaf a2be 1331 e0be 6985 973d 349b 36bf
00000070: c636 9dbd 927c 323d dd58 d5be 634f 92bd
00000080: 8d59 023e bb5c 553e 28b1 63bf 1b1c dabe
00000090: 2344 2c3e 94d4 033e 8fba e8bd a1fb 5c3d
000000a0: cbd8 453e 1fa3 d93e 3b97 f23d a4a5 0cbd
000000b0: 42aa 32be 8cac 18bd 41d1 713d b090 ee3d
000000c0: be80 7cbc 4786 ddbd f257 78be 94fc 97be
000000d0: 536c e23d 33f6 4cbe 1ffb f53d 2b23 b23d
000000e0: 42ba 4d3d 97b3 1dbe 0914 2abf 8ebe 2ebe
000000f0: d7cf 9cbe 0a3c 61bf 3412 183e b282 a1be
00000100: 1494 9dbf 7024 b43d 94ca 33bf 66a1 25bf
00000110: eb5e 323d 9fb5 523e 0946 ac3c 756b 08be
00000120: 4575 1f3e 3679 03be 3b61 edbc 1fc8 1e3f
00000130: 6cbc 013f 292c 10bd a025 923d bbee e5bd
00000140: 7226 68be d706 463d 19a9 a53d 17e7 923e
00000150: 46aa 53be 3bb4 cd3d 7671 eebe c4cf 733e
00000160: aa20 c33d 192a 113e 0ef2 e33e 6370 58be
00000170: 4b19 173e 2ac3 dbbc e53d c13e fff8 c13d
00000180: a64b e43e 4500 17bf 62dd cbbe b061 9c3c
00000190: c2ac 3e3e af6f 5dbd 5749 3cbf c6b1 b03d
000001a0: 5d2d 15bd 623c bb3c 8e06 96bf 2f46 13bd
000001b0: 8ada 0f3e 20fa 3b3d 1580 e5be 6fb7 35bf
000001c0: 5b80 60bb cd2c 88be 0b12 19bd 5b61 383e
000001d0: 20ff adbe 028b 8f3d 6328 eabd 292a 043e
000001e0: daed 983d d381 7bbf 9304 d6be a703 903c
000001f0: da22 bcbf 9497 9c3e a999 51bf b157 67be
00000200: 1273 1bbf 0806 c7be 7cf1 70bd e057 2b3e
00000210: 2de5 94bf e4fd cb3d 3733 813d 7913 d3be
00000220: 6f0a 8f3c b7e9 24bf e1a4 d03d 8598 03bc
00000230: 3ea0 74be 95e9 c3bd 4d24 81be 1e2c a1bf
00000240: 7775 00bf d709 91bf 3a91 9b3d bb1a 49bf
00000250: 08be 44bf d8ac bbbe 1460 dbbe a580 87bf
00000260: 9347 8cbd 09ed bebe b8eb 523e c090 f5be
00000270: 0301 2bbf a2b9 46bf f41e f1be 5b42 e1be
00000280: d25d 80bb 6b03 9fbe a9f6 a9bf 1efd 3abf
00000290: bde8 9cbd a1d5 3abf dcaa 2ebe f0d6 0bbf
000002a0: 1ebc df3d dc2e 5bbf ba53 5e3e c958 7c3e
000002b0: 21fe 7fbf f8c1 cb3e 95d1 503e a10d 023d
000002c0: d22a f8bc 6b0f f33d d819 18be a24e 19be
000002d0: 2bf1 7bbe f946 99be d3a3 64bf 9989 6cbf
000002e0: e6de 0c3e fee7 15bf d4a4 a8be 1f80 793e
000002f0: aaa7 5f3e 0bab f5be 13ce ed3d 88fe 893e
00000300: 676f edbd e212 913e 8f21 50be 9431 253e
00000310: b98f c8be 323a 483e b2fc 99bb 9be4 383e
00000320: 3424 cdbe 7b98 85be 23aa 7bbf 09a3 2dbf
00000330: a634 9b3e b84f e83e 4db1 91be 0f93 b9bd
00000340: 68a3 d1bd 238c 24bd 4513 64bd 7302 5dbf
00000350: d3ff 563e 208f b43d ad00 083f 4863 6cbf
00000360: 50d4 53bf e263 c7bb 3c30 a0be 8cf0 cfbe
00000370: 4dc5 a9be 83c0 83bd 79ab 553e 3845 533e
00000380: 1d0e d03d f35d 3c3d ff6f 6c3e 418a e43d
00000390: 8afc 8fbf 9472 00bf 7394 9b3d 0053 e3bc
000003a0: 3105 d73d d0d1 36bf e923 923e a384 0dbf
000003b0: c0f8 0bbf e7d6 923e 89e1 1abf 21bd 5cbe
000003c0: 8031 94be d18a b93d 2c03 573e cd7a 32bc
000003d0: c72e a3be 7082 b73d 8183 7bbf e148 27bd
000003e0: cd8c 82bf 7376 253e 3860 4bbf 33a9 28bf
000003f0: 3acc 08bf 0a77 84bf a325 283f 20d4 2abf

fc3.bias f4 [27]
0.13838007 0.15014772 0.13681068 -0.06965034 0.026115062 -0.14276421 -0.25838414 -0.15472548
0.09163945 -0.020965239 0.15719083 0.307289 0.017681843 -0.036873717 -0.059949666 -0.08662505
0.3469443 0.07610634 -0.050926056 -0.20965616 -0.294981 0.19609314 0.049182143 -0.10196224
-0.10548189 0.038839217 0.08715749
00000000: 81b3 0d3e 53c0 193e 1918 0c3e d6a4 8ebd
00000010: 41ef d53c c830 12be ed4a 84be 5b70 1ebe
00000020: 77ad bb3d 4bbf abbc a2f6 203e fc54 9d3e
00000030: 83d9 903c e508 17bd c88d 75bd 7968 b1bd
00000040: afa2 b13e a4dd 9b3d d797 50bd 1bb0 56be
00000050: c007 97be a4cc 483e 3773 493d 94d1 d0bd
00000060: e406 d8bd df15 1f3d a07f b23d
